saved_models/fedavg_global_model.pth (torch, 390088 bytes, 7 tensors)

encoder.0.weight f4 [32, 1, 3, 3]
000000 e2 07 d1 3e 4b be 96 3e 78 96 19 3f 7f d0 03 3f
       0.40826327 0.29442057 0.5999522 0.51490015
000010 56 a1 ec 3e 70 d7 e2 3e 94 86 e2 3e 3a 72 f8 3e
       0.4621684 0.4430499 0.442433 0.48524648
000020 c1 d6 05 3f 2d 14 40 bd 28 bf 94 bd 96 54 4f bd
       0.52280813 -0.04689424 -0.07263023 -0.050617777
000030 ae fb 6d be ba 46 26 be 3e e3 4d be 51 19 00 be
       -0.2324054 -0.16237918 -0.20106217 -0.12509657
000040 73 ca 04 be a4 a0 2c 3e d3 a3 28 bb 2d a7 54 3e
       -0.12967853 0.16858155 -0.0025732412 0.20766897
000050 52 50 77 3e 2e 9c 41 bd ae 3e 0d 3e b0 a6 f1 3d
       0.24151734 -0.047268085 0.13793442 0.11799371
000060 89 24 44 3d c0 92 f7 bd 47 47 27 be b8 c2 b3 3d
       0.047886405 -0.12088537 -0.16335784 0.08777374
000070 9d a2 72 3d dc 9b 26 bd 30 1c b1 bc 6c 6d 50 3d
       0.05923711 -0.040675983 -0.021619886 0.050885603
000080 07 84 25 be 7a cf b8 3d 16 04 d0 3d 11 75 f0 3d
       -0.16163646 0.09023948 0.10157029 0.11741079
000090 c1 ef 96 bd 60 75 25 bd 62 6c 5e bc 6f 85 80 bd
       -0.07369948 -0.04039514 -0.013575645 -0.062754504
0000a0 e6 c8 f7 3c b2 17 11 be 93 f5 9e 3c 8f 17 f6 bc
       0.030247163 -0.14169195 0.019404208 -0.03004053
0000b0 6e 6b b2 3c 7e 37 db bd bc f1 1e be b2 48 8e bd
       0.021779742 -0.10703944 -0.15521902 -0.06947459
0000c0 74 de ba bd 5e b9 2a be 9a a4 fd bd 6c 63 00 be
       -0.09124461 -0.16672274 -0.12384911 -0.12537926
0000d0 44 b8 9c 3c c5 eb d5 3d 3f c8 d3 bd 17 4f eb 3c
       0.019130833 0.1044536 -0.10340928 0.028724236
0000e0 9d 24 a0 3c 5e 60 9e bd 37 7a 7d be fa fb c3 bd
       0.019548709 -0.07733224 -0.24753653 -0.09569545
0000f0 69 c3 84 bd 6b 1d a6 3d 96 ab 80 3d d5 f1 54 3e
       -0.06482584 0.0811108 0.062827274 0.20795377
000100 04 da 92 3e 89 0a 93 3e 07 7e 97 3e ff 89 87 3e
       0.28681958 0.28718975 0.2958834 0.2647247
000110 dd ab 76 3e e8 42 98 3e 77 6c 50 3e 86 4a aa 3d
       0.24088998 0.29738545 0.20353876 0.083149955
000120 fa f8 5a 3e e8 12 a7 3e 33 2f 55 3e 56 2a 80 3e
       0.2138404 0.32631612 0.20818786 0.250323
000130 f9 ae 9d 3e 48 b8 c8 3e 51 27 cd 3e 6e 25 91 3e
       0.30797556 0.39203095 0.4006906 0.2834887
000140 75 7a b9 3e e5 c6 a9 3c d0 be 2d bd 45 4e 49 3e
       0.3622624 0.020724723 -0.0424183 0.19658764
000150 c1 a1 85 3d a5 b0 18 be 74 94 2f 3d 98 07 32 38
       0.06524993 -0.14911135 0.042866185 4.244558e-05
000160 b3 a3 35 3d 53 0d b4 3e 71 33 9e 3d 1f 23 cd 3d
       0.04434557 0.35166416 0.077246554 0.100164644
000170 80 67 11 3e 9c 7a 41 3e 61 eb da 3d 96 9a 2d 3e
       0.14199638 0.18894428 0.10689426 0.16953501
000180 63 35 e0 3c a6 f8 70 3e 13 60 b5 3d e7 de 1c be
       0.027369207 0.23532352 0.08856215 -0.15319405
000190 92 ea 6c 3c c3 ca dd 3c bd 27 c3 bd 24 77 2b 3d
       0.014460223 0.027074223 -0.09529064 0.04186167
0001a0 a3 88 25 bd 6b c0 3d 3e fe 9c 1e bd ef 34 2d bd
       -0.04041351 0.18530433 -0.03872394 -0.04228681
0001b0 a9 21 12 3e b1 4d 5b 3e 76 25 35 3e 6a 3e bd 3d
       0.14270653 0.21416356 0.17690071 0.0924042
0001c0 1d 92 9b 3e f2 ad bd 3d 94 61 4b 3e cd 50 35 3e
       0.30384913 0.09261693 0.19861442 0.17706604
0001d0 bc 40 8b 3d f7 cd 58 bd 15 d3 00 be fc b0 57 3d
       0.067994565 -0.0529308 -0.12580521 0.05265902
0001e0 75 83 2a 3e 8e c6 3a 3d bc 47 bb 3d e4 ff 2d bd
       0.1665171 0.045599513 0.091445416 -0.042480364
0001f0 d5 50 c4 bd 86 96 8e bc f0 a9 d0 3c e9 3b e4 bd
       -0.0958573 -0.01740576 0.025471658 -0.111442395
000200 e1 cc fd 39 3c 0a bc bd 48 65 06 be 94 51 3c bd
       0.00048408567 -0.091816396 -0.13124573 -0.045976236
000210 e9 8d 15 be 24 99 83 bb 7b fe ed 3c 26 06 83 be
       -0.14604916 -0.0040160585 0.02905201 -0.25590628
000220 22 1c f0 bd 6c d0 d1 ba 14 54 1c 3e dc 11 3b bd
       -0.11724116 -0.0016007549 0.15266448 -0.04567133
000230 ff 50 ff bb 6e 50 1c bd 58 07 42 bd 9b cf c3 bb
       -0.007791638 -0.03816264 -0.047370285 -0.0059756762
000240 2a 7e 43 3e c1 36 f6 3d 22 47 34 3e 98 0d 98 3e
       0.19091097 0.12022162 0.1760526 0.2969787
000250 68 89 8e 3e 0c af 70 3e b4 8a 52 3e b9 61 a6 3e
       0.27839208 0.23504275 0.20560724 0.3249643
000260 af cc 1e 3e 05 68 01 3d c6 62 d4 bd 0c 58 47 bd
       0.15507768 0.03159334 -0.10370402 -0.048667952
000270 55 cb d9 bd 12 ed d5 bd 89 27 37 bb bb 88 f0 bd
       -0.10634486 -0.10445608 -0.0027947149 -0.11744829
000280 c6 33 c4 3d be 69 95 bd 36 48 b7 bd 72 e0 86 bd
       0.095801875 -0.07295559 -0.0894932 -0.06585778
000290 44 78 1c bd 60 8d 02 be 10 41 52 3d f5 8c b2 bc
       -0.03820063 -0.12749243 0.05133158 -0.02179573
0002a0 4f 86 78 be 4f 85 69 3b c6 8f 60 bd 80 dc e3 bd
       -0.24269985 0.0035632437 -0.054824613 -0.111260414
0002b0 53 a6 45 bd 78 18 26 bd d1 d6 01 bd 55 d8 03 be
       -0.048254322 -0.04055068 -0.031699006 -0.12875493
0002c0 2c 70 58 3d ea e4 a8 bd c2 e1 70 bd 9b 39 0e bd
       0.05284135 -0.08246787 -0.05880905 -0.034722906
0002d0 1d 57 bc bc d6 05 5d 3c 7d 54 9e bd 8c e3 a3 bd
       -0.022990758 0.013490161 -0.077309586 -0.080023855
0002e0 1c 75 fa bd 2a 24 ed 3c 9a b2 bb bd 61 85 48 bd
       -0.12229368 0.028947908 -0.09164925 -0.048955325
0002f0 0f 50 b3 bd 70 89 03 3e 1f fe a2 3b f7 e6 34 be
       -0.08755504 0.12845397 0.0049741413 -0.17666231
000300 26 cd 1d bd d0 fa ab bd 20 21 91 bd f4 cc b4 bd
       -0.038525723 -0.08397448 -0.07086396 -0.08828154
000310 5a 0e 3b be e4 a4 64 3d bc d8 36 3e 60 4b 9a 3e
       -0.18267193 0.055821314 0.17856115 0.30135632
000320 04 68 98 3e 7c 96 e0 3d 10 16 53 3e bc 9d 3d 3e
       0.29766858 0.109662026 0.20613885 0.18517202
000330 e2 07 27 3e 46 5f 9a 3e d9 cb 87 3d b2 c7 59 be
       0.16311601 0.30150813 0.06630678 -0.21267584
000340 3f c7 0b be 1e 23 9e bd 53 ae 9d bd c7 88 17 be
       -0.13650225 -0.07721542 -0.07699265 -0.1479827
000350 15 a7 f1 bd 50 09 42 3e ee 23 b6 3d f7 d8 45 bd
       -0.117994465 0.18948865 0.08893572 -0.048302617
000360 6a e4 ee bc 3e 72 1d bd 0e 45 87 bd cd 42 d8 3d
       -0.02916165 -0.038439028 -0.06604968 0.10559616
000370 52 70 2f 3d 6e 6c c5 bc a4 16 07 bd 08 ac 02 3c
       0.042831726 -0.024099555 -0.032980576 0.007975586
000380 df bb 1e 3d 04 ed b3 39 82 ab 8b bc f9 88 07 3e
       0.038753387 0.0003431813 -0.017049555 0.13235845
000390 f8 4f dd be ca 94 bc be 43 56 1f be 8e 18 1d be
       -0.43225074 -0.36832267 -0.1556025 -0.15341398
0003a0 16 64 58 bd 87 aa 03 bc e8 ed b5 bc be f2 06 be
       -0.052829824 -0.008036262 -0.02220817 -0.13178536
0003b0 f2 9d 18 be fa 7d 39 3b ef 84 86 3c 1d 77 55 bd
       -0.14904001 0.0028303848 0.01642081 -0.05211555
0003c0 fc 3d 6f bc 7b b5 3a 3c 17 83 07 bd 63 93 a2 bd
       -0.014602181 0.011395807 -0.033084 -0.07938268
0003d0 18 38 2e 3d 45 fb be bd 3e e6 99 be 93 b4 d3 bd
       0.042533964 -0.093252696 -0.30058473 -0.10337176
0003e0 a6 c6 fb 3d e8 f4 11 be b5 80 44 bd 22 81 8e 3e
       0.122937486 -0.1425358 -0.047974307 0.27832896
0003f0 6e 67 a2 bc c7 84 4f 3b ec dd 93 3d a7 7c d3 bd
       -0.01982471 0.0031664835 0.072200626 -0.1032651

encoder.0.bias f4 [32]
000000 74 c5 cd bf 88 f6 ae 3e bc c6 b3 bd 4f a6 48 bd
       -1.6075883 0.34172463 -0.0877814 -0.04898673
000010 a1 df 03 bc 46 17 17 3f e0 dc 99 3e f6 43 20 bf
       -0.008048923 0.5901989 0.30051327 -0.626037
000020 0a f4 c2 be 09 f2 33 be 0a ab bb be 72 d3 29 bc
       -0.38076812 -0.17572798 -0.3665393 -0.010365354
000030 80 cf ff be 4c 72 bc bb cc 26 82 3c 92 6b 29 bc
       -0.49962997 -0.00575093 0.01588764 -0.010340588
000040 aa 23 8d be 0c 08 5f 3d 8b ab 65 3e 97 c2 66 3d
       -0.27566272 0.054451033 0.2242872 0.05633792
000050 1a 19 78 b9 09 a5 2a 3d 5e 40 92 be 60 3c e5 3e
       -0.00023660474 0.041661296 -0.28564733 0.44772625
000060 93 3f 55 bd d7 45 42 3f 6f 49 13 b9 a2 ce 25 3e
       -0.052062582 0.7588782 -0.00014046369 0.16192105
000070 e2 68 88 bc 2c 12 18 bc fd 39 a4 bc 8c 3e b1 bc
       -0.016651575 -0.009281676 -0.020047182 -0.02163627

encoder.3.weight f4 [64, 32, 3, 3]
000000 34 22 46 3b eb 1a 8a bb b3 93 0a bd 18 97 a9 3c
       0.003023279 -0.0042146347 -0.033832263 0.02070193
000010 3f 26 1e 3c 3a 43 32 bd 2f 03 02 3c b6 3a 07 3d
       0.009652673 -0.043521143 0.007935329 0.033014975
000020 00 fc 02 3b a9 5f 3c 3c 39 dc 9b 3d 35 e1 e7 3d
       0.001998663 0.0114974165 0.076103635 0.11322252
000030 c8 93 55 3d 05 a4 7a bc 62 b7 b2 3c 5e 5f 03 bd
       0.05214289 -0.015297894 0.02181596 -0.03207337
000040 73 36 02 bd b2 52 b8 bc 84 dc f4 bd 90 fa 70 3d
       -0.031790208 -0.02250037 -0.119561225 0.058832705
000050 5b 0c ac bd 78 d1 ff bc b3 7d 2b bd 8c bf ea bd
       -0.08400794 -0.031227812 -0.041867923 -0.11462316
000060 be ad 28 bc b0 f1 f5 bc 4d aa 20 bd f1 9d d0 3d
       -0.01029533 -0.030022472 -0.03922491 0.10186375
000070 f2 b2 b4 bd 1e cb a4 bd c6 31 02 3d 75 a0 0c 3d
       -0.088231936 -0.08046554 0.03178575 0.03433271
000080 93 78 5e 3c 0b 42 df 3c 50 8a f8 bc 80 69 63 bd
       0.013578552 0.027253171 -0.03033939 -0.055520535
000090 2a 71 41 3d 52 d2 7a 3c 7a c1 a7 3d d2 ad de 3c
       0.047227062 0.015308933 0.081911996 0.027182493
0000a0 be 64 b6 bd 24 14 c5 bd ab c4 11 3d 46 6b 9c 3a
       -0.08905934 -0.09622982 0.035587948 0.0011933825
0000b0 6f 16 c4 bb 46 dd 28 3d c0 ee 78 3d 12 8d 4d 3b
       -0.0059841196 0.041226648 0.060774565 0.0031364602
0000c0 a8 bb 49 3c 87 10 ce bd 68 59 2c bd d8 ea 9d bc
       0.012312807 -0.10061746 -0.042077452 -0.019277021
0000d0 bc 9f 39 bc e8 20 a8 bc d9 b1 8f bd 2c fa 36 3c
       -0.011329588 -0.020523503 -0.070163436 0.011168044
0000e0 fa cb b5 bc fd 00 91 3d f1 ef 60 bd 98 89 7e 3d
       -0.02219199 0.070802666 -0.054916326 0.06214294
0000f0 59 ad 9d bd fd 88 1a bc 54 16 11 bd 5e 69 20 3d
       -0.07699079 -0.009432075 -0.035421684 0.039162986
000100 82 31 f2 bc 9d 8b 93 3c 52 f0 60 3d 92 8a 19 3d
       -0.029564623 0.018010909 0.054916687 0.037485667
000110 09 d8 6b bd fa f4 c3 bc cf 43 1c bd 41 a7 29 3c
       -0.057579074 -0.023920525 -0.038150605 0.010354818
000120 c3 7b 3f bd 33 38 99 bd ec 15 88 3a 2e 5b cc 3d
       -0.046748888 -0.07481422 0.001038251 0.09978329
000130 69 b6 32 bd cc 29 8a 3b ec a3 1f 3c b8 0b a9 bc
       -0.04363099 0.0042164084 0.009743672 -0.02063547
000140 16 ab fe bc 91 8d 03 be 77 6d f6 3b 58 6b ff bc
       -0.03108744 -0.12846972 0.0075203734 -0.031179115
000150 31 b5 fd 3d 80 4f 9b 3d cf d9 01 bc 15 ea 15 3d
       0.12388075 0.07583523 -0.007925465 0.03660019
000160 31 80 3f ba 98 c2 cb bc ae 68 20 3d 86 04 9c bc
       -0.0007305174 -0.024873063 0.03916233 -0.019045126
000170 75 2e ae 3d f4 d9 24 bd b4 52 0c be be 13 00 be
       0.08504955 -0.04024692 -0.13703424 -0.12507531
000180 2e e4 df bb 68 bb b3 bd 48 14 b8 bc 25 8a d9 bc
       -0.006832621 -0.08775979 -0.022470608 -0.02655513
000190 e5 2c 96 3d cd 40 8b bd b0 93 60 bd b3 4e 9d bd
       0.07332782 -0.06799469 -0.054828346 -0.07681026
0001a0 c8 4a ab bc 5d 6a b2 bd de cf 76 bd 25 1f fe bc
       -0.020909682 -0.087116934 -0.06025683 -0.03102071
0001b0 50 d9 11 3c 37 86 9d 3d 62 94 9e 3b 6e 26 11 3e
       0.008901909 0.07691615 0.004839466 0.14174816
0001c0 01 6c 9e 3b ce 99 90 b8 b5 31 23 3d 49 7b 0a 3c
       0.0048346524 -6.8951034e-05 0.039842326 0.008452245
0001d0 33 dc 36 bd c8 88 a0 3d 0e 30 83 bd 80 80 17 bd
       -0.044643592 0.07838589 -0.0640565 -0.03698778
0001e0 a5 2f 68 3c fa b1 95 3d 26 92 51 bd cc 3c 16 bc
       0.014171516 0.07309337 -0.05116477 -0.009169769
0001f0 74 d0 a7 3c 74 9e 85 bd 2a ce 9a 3c 6c 16 99 bc
       0.02048514 -0.06524363 0.018897135 -0.01868745
000200 48 d0 28 3d 36 24 7e bc 7e eb f8 bc 6a cb 1c bd
       0.041214257 -0.015511563 -0.030385729 -0.03827993
000210 4a 2e d6 3c 0b 74 04 3e 95 4b 24 bb e4 0e 56 3b
       0.02614512 0.12934892 -0.0025069464 0.0032662684
000220 15 6a a3 bd 45 22 2e bd 1a b4 f1 3b 5e 47 27 3d
       -0.07979218 -0.04251315 0.007376206 0.040839545
000230 87 9d 02 be a1 2c 45 3c 5c d6 cb bc f6 80 ac bd
       -0.12755404 0.012034566 -0.024882488 -0.08423035
000240 94 6e 96 bd 16 51 dd 3c 88 06 05 bd c8 48 94 3c
       -0.0734531 0.027016204 -0.03247693 0.018101111
000250 77 c2 e3 bd 12 22 9b bc bb 00 b8 bc b2 4b 57 bd
       -0.111210756 -0.018937144 -0.022461286 -0.052562423
000260 4a 1a 88 3d fe 40 69 bd 5d 83 b1 bd 44 f7 4a bc
       0.06645639 -0.056946747 -0.08667634 -0.012388054
000270 53 34 b0 3d 6a a6 5b bd 1e 5a 50 bd 0a 61 f0 3b
       0.0860373 -0.0536255 -0.050867192 0.0073357867
000280 0f 3e cc bd b4 86 82 3d 34 56 eb 3c d1 eb eb 3c
       -0.09972774 0.06373349 0.028727628 0.02879897
000290 92 80 a1 bd 20 a1 45 bd ad 7a d5 bd 93 f1 28 3c
       -0.07885851 -0.048249364 -0.10423789 0.010311502
0002a0 f9 54 62 3d 0a 23 0c 3d c0 25 90 bd 8a 92 38 bd
       0.055256817 0.034213103 -0.0703845 -0.045061626
0002b0 03 83 36 bd ae 1e e9 bc f7 7d cd 3c 53 5e 93 bd
       -0.044558536 -0.028457012 0.025084479 -0.07195725
0002c0 62 44 8e 3d 85 d5 74 3d 37 7c 94 3d 43 25 86 bd
       0.06946637 0.05977394 0.072502546 -0.06550076
0002d0 cb 8a e9 3d 6f 23 8c bd c4 b6 af bc 46 26 39 3d
       0.11403426 -0.06842696 -0.021449454 0.045202516
0002e0 0b bb 8e bc 5b 89 a6 bd 0b 0b 44 3d 75 7c 1c 3d
       -0.017423173 -0.08131667 0.047862094 0.03820463
0002f0 09 93 5f 3c 67 40 1c bd 58 c4 a7 bc c3 9d de bc
       0.013645896 -0.038147356 -0.020479366 -0.027174836
000300 4b d9 08 3c 28 f9 4d bd 1b b0 4e bd 5a e3 eb 3c
       0.008352588 -0.050286442 -0.050460916 0.028794933
000310 6a 48 87 bd 3a 14 41 bd 6b 87 18 3e f2 84 00 bd
       -0.06605609 -0.04713843 0.14895408 -0.031376787
000320 4e c2 1d 3d be 29 06 be 2d 8d 3a bd db 32 9c bc
       0.03851538 -0.13101861 -0.045544792 -0.019067219
000330 3e 51 3d 3d aa 56 29 bd 96 8a 1c 3b 50 94 86 3c
       0.046220057 -0.041342415 0.0023886315 0.016428143
000340 5c 94 d9 3b c6 bc 30 3c 2c 31 b1 bd 94 28 b7 bd
       0.0066400003 0.010787195 -0.08651957 -0.089432865
000350 24 a7 13 3d a6 57 5f 3d ee b6 c2 3d 64 1f af 3d
       0.03604807 0.054526947 0.09507547 0.08550909
000360 94 a5 bc 3d dd ff e6 bc e4 ab e5 3c 0f 70 e5 bc
       0.09211269 -0.028198177 0.028036065 -0.028007535
000370 8b 00 de 3d 7b a4 e4 3d 60 06 b1 bc 1c 16 a4 bd
       0.10839947 0.11164185 -0.021609485 -0.080120295
000380 fa cc 1f 3d f8 d1 0c 3d 2c 2b 7b 3d 58 7e cd bd
       0.03901384 0.03437993 0.06132047 -0.10033864
000390 c6 94 97 3d ef a3 68 bd 8d 62 89 3d 8b df 6a bc
       0.07401423 -0.056796964 0.0670825 -0.014335523
0003a0 57 42 7b 3c 71 07 60 bd 12 a1 92 bc 04 cb 62 3d
       0.015335641 -0.054694597 -0.01789907 0.055369392
0003b0 7a ea 22 3d ab 06 f8 bd 5a 98 b8 3b 01 94 08 3d
       0.039774396 -0.12110647 0.005633396 0.033344273
0003c0 ae a3 f1 3c 35 59 70 3c 1a f6 b3 bd 40 f6 63 bd
       0.029496994 0.014669706 -0.087871745 -0.055654764
0003d0 34 b8 6b bc 9c 1e 82 bd e0 a0 f8 bb e9 f5 21 3d
       -0.014387179 -0.063534945 -0.007587537 0.03954116
0003e0 cb d0 a3 bd 46 90 fa bc 50 60 45 bd 0f fb 27 bc
       -0.079988085 -0.030586373 -0.048187554 -0.010252728
0003f0 80 fb 9d bd 49 47 bb 3d b3 40 dc 3d 8a 60 ec 3b
       -0.077139854 0.09144456 0.10754528 0.007213657

encoder.3.bias f4 [64]
000000 52 a4 d5 bc f6 de a0 3d 8d 4a 6b 3d 23 3d e9 3c
       -0.02607933 0.078550264 0.057444144 0.028471535
000010 a3 ad d1 3d 9a 97 ed 3c 33 f3 26 3e 38 6a 03 3e
       0.10238197 0.029002953 0.1630371 0.12833488
000020 b9 99 b4 bd aa c0 c3 be b9 b8 e4 3d 77 23 3a 3c
       -0.08818383 -0.3823293 0.111680456 0.011360995
000030 74 80 3f 3c 46 d9 84 3d a3 ef 8a 3d bf 93 87 3e
       0.01168834 0.06486754 0.06783988 0.2647991
000040 bd 7a b3 3c b9 08 69 3d 6e cc 38 bc de 6e c3 3a
       0.021909112 0.056893084 -0.011279209 0.001491036
000050 de 81 8e 3e 15 ad 14 be 2a f1 12 bd 80 4d 86 bd
       0.27833456 -0.1451915 -0.035874523 -0.06557751
000060 7d 33 f0 be 26 8e f8 3d 3e e5 43 3e 63 3c 90 be
       -0.46914282 0.12136488 0.19130418 -0.2817107
000070 ce b9 0b be d9 2d 01 be 2e 26 9d 3c 93 c1 f7 bb
       -0.13645098 -0.12615146 0.019183245 -0.0075609176
000080 db 8f fe bd ed c7 29 3c 0a b5 d7 3c 8e a1 04 be
       -0.12429782 0.010362607 0.026331443 -0.12952253
000090 a8 b4 98 be c8 97 78 bc 3a 66 b6 3b 5a e8 a7 39
       -0.2982533 -0.015172906 0.0055663856 0.00032025838
0000a0 a4 72 1c 3e 7e 34 16 3d 3e cf b4 3d c9 80 86 bd
       0.15278107 0.036671154 0.08828591 -0.065675326
0000b0 f5 00 08 bd 05 f9 01 bd 3a 99 d5 bc ac d9 23 ba
       -0.033204038 -0.031731624 -0.02607404 -0.0006250392
0000c0 87 33 95 3c 54 27 1e 3c bb 0b b7 bd 6d d1 d0 3d
       0.018213047 0.009652931 -0.08937784 0.10196195
0000d0 46 09 a0 3e 5c 80 c8 3d 4c b4 ce bc 73 a0 4e be
       0.31257075 0.097901076 -0.025232457 -0.20178394
0000e0 9d 4a 8f 3d 36 4d 39 be 96 d8 86 be 03 15 f5 b9
       0.06996653 -0.1809586 -0.26337117 -0.00046745696
0000f0 e9 d4 7a bd 7f 50 03 bd 37 00 04 be 94 72 64 be
       -0.061238203 -0.03205919 -0.12890707 -0.22309333

encoder.6.weight f4 [64, 64, 3, 3]
000000 20 be 45 3c 5f eb 42 3d 35 6b 9c 3d bd 0d a9 3c
       0.012069255 0.04758775 0.076376356 0.020636434
000010 9f 88 4f 3d d0 ce 38 bd 26 96 db bc 90 18 af 3c
       0.0506674 -0.045119107 -0.026804995 0.021374017
000020 d5 72 b4 bc 1c d8 10 3d 64 c1 45 3d aa 6b 0e bc
       -0.022027412 0.035362348 0.048280135 -0.008692661
000030 96 a9 e1 bd 0c 71 e2 3d 14 18 0b be 77 b1 3a bd
       -0.11018674 0.11056718 -0.13583404 -0.0455794
000040 1a 10 01 3d bd 52 e9 bc bc b5 3e bc 9e 03 54 3c
       0.031509496 -0.028481835 -0.011640009 0.0129403155
000050 db 93 ae bc ed eb 1d bd 70 74 81 3d 6a c3 af bc
       -0.021310737 -0.038555074 0.06321037 -0.021455485
000060 98 46 2a 3d 32 9f 9f 3c e2 1b 2a bc 0d ba c6 3d
       0.04157123 0.01948509 -0.010382624 0.09703455
000070 66 ed ef 3c 82 a0 06 be 93 9c 3c bd 18 1d 14 3d
       0.029288005 -0.13147166 -0.04604776 0.03616056
000080 5c 3b 8b 3c c4 93 07 3d 8e 06 41 bd ca 68 40 3c
       0.016996078 0.033099905 -0.04712539 0.011743734
000090 aa bd 5f bb ba bf 9a 3c 12 06 01 3e d3 71 fb 3c
       -0.0034140148 0.01889025 0.12599972 0.030693924
0000a0 78 2b 03 be 00 22 83 bc 87 99 34 be ea 50 17 bd
       -0.12809551 -0.016007423 -0.17636691 -0.0369424
0000b0 b5 c0 be 3d e9 d1 97 bd ef 2e f1 3d 78 b5 a4 bd
       0.093141 -0.07413084 0.1177653 -0.08042425
0000c0 5d fe ab bd 52 ea 38 bc 03 8a 58 bc f5 5d 60 3c
       -0.08398125 -0.011286335 -0.013216498 0.013694276
0000d0 c8 42 f6 3d d4 cd a5 3c b3 aa 4c 3a cf 7f a4 bd
       0.12024456 0.020239748 0.00078074186 -0.0803219
0000e0 b4 fd 44 bd 7d f4 c5 bc 2c a2 08 bd f4 3b 1e 3d
       -0.048093513 -0.024164433 -0.033357784 0.038631395
0000f0 fc 3a c3 bc 2b 84 02 bd 84 bb 6b 3d d2 2b 3c bd
       -0.023831837 -0.031864326 0.057551876 -0.045940228
000100 cc 8a 58 bd 2d 6a 4b 3c 0d 0a 53 bd ec 48 c9 3d
       -0.052866742 0.012415451 -0.051523257 0.09828362
000110 98 14 57 3d f1 fb b3 3a 90 c9 0d bd 34 f8 b3 bd
       0.052509874 0.0013731701 -0.034616053 -0.08787575
000120 9a d2 4c 3d 5e 42 59 3d 82 46 43 3d 76 ca 89 3d
       0.050005533 0.05304181 0.047674663 0.067280695
000130 45 d5 9d 3d 66 3b 17 3d 5e e7 ec 3c 87 3a 7f 3d
       0.077066936 0.03692188 0.028918918 0.062311675
000140 46 55 e4 bd 5e 49 63 3d cc b9 de bc f4 f2 0e bd
       -0.11149077 0.05548989 -0.027188204 -0.034899667
000150 cb 66 59 3c e3 4a c9 bd c2 ad 9c bd 99 4f 64 bd
       0.013269137 -0.09828737 -0.07650329 -0.055739973
000160 14 3b 49 3c b6 e9 88 bd 02 1f ef 3c c8 68 f3 3b
       0.012282152 -0.06685202 0.02918959 0.0074282624
000170 80 b6 83 bd 30 42 64 3d d2 0e 9e 3d 1a b0 53 3d
       -0.064312935 0.055727184 0.077176705 0.051681615
000180 aa d3 51 bd 96 af eb bc 80 e5 85 3d e3 5a 87 3b
       -0.05122725 -0.02877025 0.06537914 0.0041307076
000190 cc 85 5f bd e6 f3 50 3d 44 7a e9 bd 8a a9 b5 bb
       -0.054570958 0.05101385 -0.114002734 -0.0055438923
0001a0 bc bc 2f 3e 7e f0 b1 3d db 4c a9 bb a9 33 5f bd
       0.1716184 0.08688448 -0.0051666326 -0.054492626
0001b0 7c 83 a5 bd 15 52 9b 3d 92 c0 29 3d ca 82 75 bd
       -0.08081719 0.07584015 0.041443415 -0.059939183
0001c0 78 fd 19 bd 19 52 bf 3c d8 4e 15 3d 5b de 6d 3d
       -0.037595242 0.023354577 0.036452144 0.058073383
0001d0 fa 34 7c bc 61 29 61 3d e7 6d 21 3c 16 90 6f 3b
       -0.01539349 0.054971103 0.009852863 0.0036554388
0001e0 92 be 09 3e 4d 01 a2 3d 5c 74 19 bd 8a 86 d3 3c
       0.13451603 0.07910404 -0.037464485 0.02582099
0001f0 dc 5b fd 3c a1 2f 47 3d 9e a1 95 3d 37 27 87 bd
       0.030927591 0.048629407 0.07306217 -0.065992765
000200 f1 f6 fa bd dc f4 69 bd 4f cb 83 3c b8 fa 16 3c
       -0.122541316 -0.05711828 0.016088156 0.009215049
000210 26 f2 4d bd 9c c6 bc bd 54 2b 04 bc f0 fe 70 bc
       -0.05027976 -0.09217569 -0.008066971 -0.014709219
000220 ff 71 1c be 54 ac 67 bd dc 49 70 bd db f8 59 bd
       -0.15277861 -0.05656083 -0.058664188 -0.053215843
000230 bc 14 82 bd 62 86 da 3c 4d e5 92 3d 65 87 84 3d
       -0.06351611 0.026675407 0.07172642 0.06471137
000240 5f 2d 57 bd 2d 01 21 bd b2 18 2f bd 9a 55 38 bc
       -0.052533504 -0.039307762 -0.04274816 -0.011250878
000250 08 a9 26 bd ca 75 0b bd 28 8a d2 bc e4 66 90 3c
       -0.040688545 -0.03404788 -0.025700644 0.017627187
000260 c3 65 3d bc 30 94 bd bd 07 9e 0e 3d 4a 05 9b 3c
       -0.011559906 -0.0925678 0.034818675 0.01892342
000270 1e 89 39 bd 95 56 cd 3c 50 7b 78 3d c8 03 40 bd
       -0.04529678 0.0250657 0.060664475 -0.046878606
000280 e4 9b 2e bd 3a cd 27 3d a2 a3 8b 3c 06 4e 60 bd
       -0.042629138 0.040967204 0.0170458 -0.05476191
000290 d9 f9 95 3d 5e f7 41 3d dc 21 39 bd 3e 55 89 3d
       0.07323045 0.04735505 -0.045198306 0.06705712
0002a0 7a 62 54 bd d8 ba 47 3d 56 31 33 3d f8 05 02 3a
       -0.051851727 0.048762172 0.043748222 0.0004959996
0002b0 9a 91 a2 3d 4c db 54 3d 7d 00 28 3c c9 5d 1d bc
       0.079379275 0.05196695 0.010254023 -0.00960488
0002c0 a9 24 d0 3d ce a8 8d 3c 73 12 51 bd 83 73 22 bb
       0.10163242 0.017292406 -0.051042985 -0.0024788089
0002d0 5e 34 5c bd 28 c3 cd bd 7e 07 35 bc 5c 21 d9 3b
       -0.05376088 -0.10046989 -0.01104915 0.006626291
0002e0 3b 9a df 3c 20 91 21 bc 04 a4 00 3e bc 67 f0 bc
       0.027295223 -0.009861261 0.12562567 -0.02934634
0002f0 18 b4 bf bc 43 26 2c bd 92 f1 b6 3d 2b 86 c6 3c
       -0.023401305 -0.042028677 0.08932795 0.024233898
000300 11 5b 7a bc 72 e2 7b bd 32 44 a6 3d 19 68 38 bd
       -0.015280501 -0.061495252 0.08118476 -0.04502115
000310 da 54 77 bc 2f 49 af 3c 00 7e 5d 3d 96 32 8a bd
       -0.015095914 0.021397201 0.05407524 -0.0674793
000320 82 d8 56 bd 44 d8 4a bd 82 6f 32 3c ea 9d 9e 3d
       -0.05245257 -0.049522653 0.010890843 0.077449635
000330 12 d4 f9 3a ff 46 f2 bc 92 28 8d bd 87 93 87 bd
       0.0019060394 -0.02957487 -0.06892504 -0.066199355
000340 12 b7 02 3d cf 50 85 bd e4 d6 03 bd aa f8 51 3d
       0.03191287 -0.06509554 -0.032187358 0.051262535
000350 94 4f 6c 3d cc 56 59 bd 23 bd 94 3c dd cf b7 3c
       0.05769308 -0.05306129 0.018156594 0.022437984
000360 82 28 18 bd e4 b7 93 3b 41 86 d1 bb c7 09 70 3d
       -0.037148006 0.0045080055 -0.006394178 0.058603074
000370 8a 72 8c 3d 5b d4 9f 3b 54 84 37 3d 39 eb dc bc
       0.06857784 0.0048776097 0.044803932 -0.026967632
000380 dc a5 80 bc db 80 ab 3d aa 87 9c bd 63 4c 01 bd
       -0.015704088 0.083741866 -0.07643063 -0.03156699
000390 5b 08 dd 3b 3a 24 fb bc e4 18 34 3d b6 d0 30 be
       0.006745381 -0.030656923 0.04396905 -0.17267117
0003a0 50 23 61 3a 50 85 aa bd 93 91 58 3d 60 82 00 3a
       0.0008588331 -0.083262086 0.052873205 0.000490224
0003b0 5f 3a 87 3d ae 2b 45 bd 6f 59 ca 3c d0 bd 49 3d
       0.0660293 -0.04813736 0.024700848 0.049253285
0003c0 fa dd c2 bc 00 6b 41 3d 25 f0 2f bd 0a 2f a2 3b
       -0.023787487 0.047221184 -0.04295363 0.004949455
0003d0 0e 98 7a bd 6e b7 27 bd 24 8a 5d bd 5f 58 0e 3e
       -0.061180167 -0.040946417 -0.05408682 0.13900898
0003e0 98 60 b8 ba 88 c6 a5 bb e3 c0 42 3d 20 bd d4 bc
       -0.0014066873 -0.005059067 0.047547232 -0.025969088
0003f0 a9 17 0b bd 38 f1 06 3d 82 18 2c 3e 5f 14 83 3d
       -0.03395811 0.032944888 0.16806224 0.0640037

encoder.6.bias f4 [64]
000000 a4 6d c6 bc 7e 0b 3a bd 0d a6 6b bd db f8 17 be
       -0.024222203 -0.045421116 -0.057531405 -0.14841025
000010 31 04 e2 bc 16 2e 15 3e 42 b6 01 bd 14 af d4 3d
       -0.02758989 0.14568362 -0.031667955 0.10384956
000020 ca ee 66 bd 42 75 8a ba 4f f0 b5 bd 27 a8 20 3d
       -0.05638007 -0.001056351 -0.08883726 0.039222863
000030 b1 de 87 bd ca d4 b8 bd c4 de 1e bc c3 e9 37 bd
       -0.06634272 -0.09024961 -0.009696666 -0.044900667
000040 42 be 44 3b ed 7c 0c be b4 73 dd bd 2c 4f 04 bd
       0.003002063 -0.1371953 -0.10813084 -0.032302067
000050 4b a2 33 be b5 a9 59 3c 32 2f 56 3c 8c 2f dd 3c
       -0.17542379 0.01328509 0.013072776 0.027000211
000060 96 81 91 bd 70 c1 bc bd ef 60 f8 bd 1a 34 87 be
       -0.07104795 -0.09216583 -0.121278636 -0.26406938
000070 7a 83 7e 3b 7b e9 60 b9 66 69 dd bd da 49 60 be
       0.003883569 -0.00021449283 -0.10811119 -0.21903172
000080 ef 55 59 3d 6e 66 06 3c ec e4 54 bd ff 77 2c 3d
       0.05306047 0.008203132 -0.05197613 0.042106625
000090 aa 84 97 3d 2f df 2f 3e e6 9d 92 3d 2e a8 fb bd
       0.073983505 0.17174982 0.07159023 -0.12287937
0000a0 2f b5 42 bd d8 49 7f 3b 5c c9 b5 bd 1f c1 86 bd
       -0.04753607 0.0038953926 -0.08876297 -0.06579804
0000b0 24 09 84 3e 60 16 32 bd 86 64 c9 bd f5 50 0e 3d
       0.25788224 -0.04347837 -0.098336264 0.034745175
0000c0 fa c5 6b 3c f0 19 15 be ba 40 32 be 48 f9 04 be
       0.014390463 -0.14560676 -0.17407504 -0.12985718
0000d0 b0 71 8d 3d 69 17 24 be ca 06 a9 bb 84 a0 db 3b
       0.0690645 -0.16024555 -0.00515828 0.0067024846
0000e0 4c 14 0c bc 72 d6 d8 bd b0 52 37 be 44 e9 06 bd
       -0.008549761 -0.10587777 -0.17902637 -0.032937303
0000f0 5b ed 48 3b 40 8e f2 bd 28 01 6e 3b 76 88 86 bc
       0.0030659053 -0.11843538 0.0036316607 -0.016422492

classifier.weight f4 [40, 1024]
000000 af e2 d9 3c 26 a5 f7 3c df bb 5f bb d5 11 cc 3c
       0.026597349 0.030230116 -0.003413908 0.024910847
000010 2d dd 8a ba f6 69 70 3c 51 a8 9e 3a ab 81 28 3c
       -0.001059448 0.014673701 0.0012104606 0.0102848215
000020 5e 7b f1 3c 2b a2 82 bc aa 1f ce bb a8 bc 78 37
       0.029477771 -0.015946468 -0.0062903957 1.4825877e-05
000030 fa 1b 38 3d 02 94 57 39 66 d2 d6 3a 0b b8 44 bc
       0.044948556 0.00020559135 0.0016389608 -0.01200677
000040 97 dc f1 3c 70 ed 1c 3c 1e 8c 74 3b 34 b1 01 bd
       0.02952413 0.009578094 0.0037314962 -0.031663135
000050 89 6e 1d bc 12 d0 fd 3c ef ea 18 3d 9c 3e 99 3a
       -0.009608873 0.030983005 0.037333425 0.0011691633
000060 0e e0 9b ba 66 34 95 3a 82 9b 7b bc 0e 6e 41 bd
       -0.0011892335 0.0011383414 -0.0153569 -0.047224097
000070 96 9e 67 bb b6 4d 7a 3c 1e 4b c3 bc cc 10 5a 3d
       -0.0035342327 0.015277317 -0.02383953 0.053238675
000080 9c 14 bd 3d b9 8a 3c 3d 11 9a 1d 3d e3 3c b3 3d
       0.092324466 0.046030734 0.038477007 0.087518476
000090 6a 4a 39 bc 68 67 6d bd 6c 92 c1 bc 77 5d ba bb
       -0.011309246 -0.057959944 -0.02362939 -0.0056874114
0000a0 6d 27 b9 bc ec 58 18 bc b2 3a 0a bc e0 c8 24 3d
       -0.022601807 -0.009298544 -0.008436846 0.04023063
0000b0 6e 5f 03 3d 0d b3 86 3d 93 c3 4c 3c b8 0f 7a 3d
       0.03207343 0.0657712 0.0124978 0.061050147
0000c0 6b 3b 3d 3d 15 a5 07 3b b6 8f c3 bc 84 14 2b 3d
       0.046199244 0.0020697762 -0.023872238 0.041767612
0000d0 47 b6 88 bc a6 71 2c bd 76 b0 77 bd 10 30 80 3c
       -0.01668848 -0.04210057 -0.06047102 0.015647918
0000e0 9f 5c 24 3d 2c 9f 58 bc bb ab 20 bd 6e a5 4c 3d
       0.040127393 -0.013221543 -0.039226275 0.049962454
0000f0 a6 b5 ac 3d 68 81 39 3c e8 56 39 3d e8 30 92 3d
       0.08433084 0.011322357 0.045248896 0.071382344
000100 b0 82 b3 bc aa 04 14 bc b1 9c 3c 3c f1 08 bb 3c
       -0.021912903 -0.009034315 0.0115119675 0.022831412
000110 db ff 81 bd e8 69 a1 bd 88 b6 53 bd 0a ff df bc
       -0.06347629 -0.07881528 -0.051687747 -0.027343292
000120 28 42 3d bd 34 6e 6f bd 26 e7 18 bd d0 05 b0 bd
       -0.04620567 -0.058454707 -0.037329815 -0.08594859
000130 2e 12 0d bd 9c 77 be bc e8 76 f8 bb 59 3d 27 bb
       -0.034441166 -0.023250394 -0.007582534 -0.0025518744
000140 0c 65 02 3d e6 c0 60 3d 3a 08 68 3d e1 f7 c8 3d
       0.031834647 0.054871462 0.05664847 0.09812904
000150 55 90 57 3d ea a1 2a 3d 9a d1 39 3c 7b 57 3a 3d
       0.05262788 0.04165832 0.011341477 0.045493584
000160 a1 ce 6e 3d 2e 0d 5b 3c 4c 09 72 3c 3b 8d 1a 3d
       0.058302525 0.0133698415 0.014772724 0.037732344
000170 10 ba 2a 3d aa 1f 48 3c 9d 1b 06 3d 02 c3 83 3d
       0.04168135 0.012214581 0.032741178 0.06433679
000180 68 b1 a2 3c 94 13 36 bd 68 58 61 bb 33 a9 08 bd
       0.019859985 -0.044452265 -0.003438497 -0.033364486
000190 06 19 5d bd 22 b2 bf bc 0a 9c ec bc 80 d1 93 bd
       -0.053978942 -0.02340037 -0.028882999 -0.07217693
0001a0 66 00 00 bb d6 27 eb bc 89 fa a9 bb d3 71 3d bd
       -0.0019531487 -0.028705519 -0.005187337 -0.04625113
0001b0 52 29 2e 3d b7 9f 1f 3d 37 fa 05 3d 50 fc ba 3b
       0.042519875 0.038970675 0.032709327 0.0057063475
0001c0 b0 20 b8 bd 45 5b bb bd 03 bc 87 bd 6a c5 d8 bd
       -0.0899061 -0.09148268 -0.06627657 -0.10584529
0001d0 5e 8c 86 bd 7b c6 11 bc fe 1e 10 bd fb b1 80 bd
       -0.06569742 -0.008897419 -0.035185806 -0.06283947
0001e0 54 7c 20 bd 34 6b 6e bd 73 5d 82 bc c2 8c 91 bd
       -0.03918107 -0.058207706 -0.0159137 -0.071069255
0001f0 a1 1f 2a 3b 7e 80 50 bb bd 85 1a bd 71 44 c4 bc
       0.0025958794 -0.0031814869 -0.0377252 -0.023958417
000200 f2 3f 42 3c 5a df 21 3d 31 84 45 3d 23 01 3f 3d
       0.011856066 0.039519645 0.04822177 0.046631943
000210 1e ab 58 bd d0 b5 0f bd b3 f2 8d bd 4b 4e 93 bd
       -0.052897565 -0.0350855 -0.06931057 -0.071926676
000220 2a fd 0b bd d8 68 83 bd ef f0 48 bd e5 42 a9 bd
       -0.034176983 -0.06416482 -0.049057897 -0.08264712
000230 47 a7 7a bd d3 4a 57 bd 52 62 6a bd 80 56 7b bd
       -0.061194684 -0.052561592 -0.05722267 -0.06136179
000240 7a 32 0c 3d 7c 1a e9 bc cc a0 c6 bc 40 7d d2 3b
       0.034227826 -0.028455012 -0.024246596 0.0064236224
000250 99 e7 a0 bc 18 72 81 bd 57 33 82 bc 24 59 15 bd
       -0.019641684 -0.0632059 -0.015893621 -0.036461964
000260 0c bc 89 bd 70 2c 80 bd 3c 79 00 bd 1d e5 b0 bd
       -0.0672532 -0.06258476 -0.031365618 -0.0863745
000270 27 7c c6 bc 3e d2 18 3c 23 80 38 bc 26 8c 66 bc
       -0.024229122 0.009327469 -0.011261019 -0.0140715
000280 7c 16 43 3d 8a a3 1e bc 6f e7 21 bd 4e 24 38 3a
       0.047628865 -0.009682545 -0.039527353 0.0007024453
000290 68 ed 66 bd f4 d1 9d 3b 31 bd 98 3c 2a 5b 0c 3d
       -0.056378752 0.004816288 0.018644901 0.03426663
0002a0 14 e6 b8 bd ca e7 77 3c a7 47 ae 3b fa 8f 5e 3c
       -0.09028259 0.015130946 0.0053186 0.013584131
0002b0 3f a2 6f bd ca 7b 2a 3b 0a ea fb bc 72 4f 4d bb
       -0.05850434 0.0026013725 -0.030751247 -0.003132787
0002c0 04 51 5e 3c 25 70 ed bc bd a1 b7 3c 6d b2 79 3c
       0.01356912 -0.028984139 0.02241599 0.015240294
0002d0 79 21 80 bb 9c a3 e2 3c d0 56 e8 bc 34 e2 e4 3c
       -0.0039102403 0.027665906 -0.028361708 0.027939893
0002e0 47 33 d5 bc 46 b9 79 3b 7c 72 aa 3c 7f cc 98 bc
       -0.026025428 0.0038104816 0.020806544 -0.018652199
0002f0 da 49 0f 3d 64 cd ea 3c f1 b0 92 3c 21 b6 05 bc
       0.03498254 0.028662391 0.017906638 -0.008161099
000300 5d 98 11 bd b4 58 81 39 f6 9c bc 3c 75 58 7c 3c
       -0.035545696 0.00024670886 0.023024064 0.015401949
000310 69 31 69 bc 4e 94 0e ba d2 57 57 3c ec 54 66 3c
       -0.014232972 -0.0005438969 0.013143497 0.014058333
000320 4d 7e 68 bc 63 03 98 bc 07 48 ef bc 9f a6 16 bd
       -0.014190269 -0.018556302 -0.02920915 -0.036779996
000330 0e 1e a3 3d 0d e3 3c 3d 1d 10 af bb a5 62 e0 3c
       0.07964717 0.04611497 -0.005342497 0.027390787
000340 82 87 a6 bd 3e 72 bd bd 00 04 b6 bd cb 9f a7 bd
       -0.08131315 -0.092503056 -0.08887482 -0.08184775
000350 a6 0d 02 be 70 55 9a bd 6c 3e 99 bd 15 b8 00 be
       -0.12700519 -0.07535827 -0.07482609 -0.12570222
000360 06 8d f2 bd d0 ac bb bd 2e fc 86 bd 1c fb 14 be
       -0.11843304 -0.09163821 -0.06591068 -0.14548916
000370 9a c9 62 3d 47 3f a8 bc 37 a6 9c bc 3b 31 14 3d
       0.055368043 -0.020537985 -0.019122226 0.036179762
000380 e3 d7 6d bc 74 b0 92 bb 56 79 40 bc 58 16 be 3c
       -0.014516803 -0.0044766013 -0.011747679 0.023204014
000390 83 c8 9f 3c aa a6 9d 3c 4c 80 21 3c 59 59 b3 bc
       0.019504791 0.01924451 0.0098572485 -0.02189319
0003a0 c0 2c 9d 3c 7a f4 3b 3c a0 ec 4a 3c 31 78 e1 bc
       0.019186378 0.011471862 0.012385517 -0.027523132
0003b0 e8 47 c0 bc f5 f5 d9 bc 81 63 9a 3b 70 da 84 bb
       -0.023471788 -0.02660654 0.004711569 -0.00405436
0003c0 7d 5c af 3c d4 7f 8f 3c 02 c5 0b 3d 4f c9 5b 3d
       0.021406407 0.017517008 0.03412343 0.05365878
0003d0 2a c1 01 bd 8c 59 ac 3b 45 8e 2c bd e8 fe de bc
       -0.031678356 0.0052596983 -0.042127866 -0.027221158
0003e0 91 f8 b6 bc 83 1d 66 3b a2 97 40 bd af 89 c2 bc
       -0.022335323 0.0035112805 -0.04701961 -0.023747293
0003f0 56 31 95 3c e0 d0 b0 bc dc ee 1a bd 37 4e 83 bc
       0.018212002 -0.021583974 -0.03782545 -0.016028507
